model/corrupt_mnist_model/model.pth (torch, 378536 bytes, 8 tensors)

conv1.weight f4 [32, 1, 3, 3]
000000 a8 f7 3c 3e 94 23 ee 3e 4b 27 bd 3e 3a 29 44 3e
       0.18453848 0.4651152 0.3694404 0.19156352
000010 c0 77 d2 bd 48 95 0b be a7 17 23 bf 3c c2 ca be
       -0.10276747 -0.13631165 -0.63707966 -0.39601314
000020 7f 31 08 bf 1d c1 3f 3d f0 5b 33 3d d7 36 18 3e
       -0.53200525 0.046815027 0.04378885 0.1486467
000030 b5 9e 0b be 43 35 40 3d 15 bd 4e bc 8c 0f 7f 3e
       -0.1363476 0.046925794 -0.012618323 0.24908274
000040 b8 f4 31 3e 7b 53 05 bd 75 86 78 be 5a 08 a2 be
       0.17378509 -0.032550316 -0.24270041 -0.31646997
000050 69 e0 89 3e f8 91 85 bd 9c d5 40 be 48 54 83 be
       0.26929024 -0.06521982 -0.18831486 -0.2565024
000060 a2 06 5c be 8f 2b ac bd 68 71 72 3e 00 b8 f2 be
       -0.21486905 -0.08406746 0.23676074 -0.47406006
000070 24 c6 0a bf a3 8d 91 bd 1f 08 bd 3e e2 16 32 be
       -0.5420859 -0.07107093 0.36920258 -0.17391542
000080 5e c1 e1 be 92 4b 78 3d a9 b8 52 be 0c 55 c6 be
       -0.4409284 0.060618944 -0.20578255 -0.3873676
000090 35 74 8f 3e fd 95 8a 3e 79 7b e8 3d 8b e0 b0 3e
       0.28018346 0.27067557 0.113516755 0.34546313
0000a0 d9 5d 5f 3e 7e 7b e6 be c6 0e de bd 63 be f0 be
       0.21813144 -0.45016092 -0.108426616 -0.47020254
0000b0 a4 63 f9 be 5a 6f 97 3d 2d 8e 45 3e b3 40 78 3d
       -0.48708832 0.073942855 0.19292517 0.060608577
0000c0 b9 73 18 be 50 a5 ae bc 47 59 98 3e d2 3f 25 be
       -0.14887895 -0.021319062 0.29755613 -0.16137627
0000d0 0c 3a 8d 3e 98 2d 3b be 24 cd 11 3e d0 2b 7e 3e
       0.2758335 -0.18279111 0.14238411 0.248214
0000e0 94 1f 55 3e 3d 2d 82 3e f1 fc e5 3d 46 59 02 3e
       0.20812827 0.2542514 0.11229885 0.12729368
0000f0 3c 7a 57 3e fb 62 37 be 5e 86 83 be 62 49 aa 3d
       0.21042722 -0.17908852 -0.25688452 0.08314778
000100 98 66 89 be 39 06 83 3e 1b 7a af 3d 84 b0 a3 3e
       -0.26836085 0.25590685 0.08568212 0.31970608
000110 b1 50 ba 3e 22 e4 6c be 69 6a 85 be 5f e8 02 bf
       0.36389688 -0.23133901 -0.26057747 -0.5113582
000120 3f eb b1 3d 81 b6 bf 3e d8 5f 27 be f6 2b 89 3e
       0.08687448 0.37443927 -0.16345155 0.26791352
000130 8b 3e 2a 3d 4e 48 c7 3e ad cf c2 be 7e f2 dc be
       0.041563552 0.38922352 -0.3804907 -0.43153757
000140 e6 fe d0 be cd bd 30 3e 27 46 46 3e 8a 7f 07 bf
       -0.40819472 0.17259903 0.19362698 -0.52928984
000150 03 fc 91 3e 93 f3 91 3d 6e 57 ba be 31 b8 0e 3e
       0.28512582 0.07126536 -0.3639483 0.13937451
000160 a4 88 8e bd b9 6e 29 be 95 e4 bb bd d8 9d 6e 3e
       -0.06959656 -0.16546144 -0.09174458 0.233024
000170 12 3a 39 be 06 d5 e2 bd 22 d8 19 bd 9c 72 c8 3d
       -0.18088558 -0.11075787 -0.037559636 0.09787485
000180 45 7d 30 3b c2 be 81 3e eb e6 2a 3e 1a b5 7f 3d
       0.0026930135 0.2534085 0.1668965 0.06242857
000190 14 13 92 bc fe df 42 3d 78 8f 34 be 20 9b 8e 3e
       -0.017831363 0.047576897 -0.17632854 0.27852726
0001a0 4f 4e 8f 3e ac 46 b2 3c 4e e1 8b bd 23 c5 d5 3d
       0.27989432 0.021762215 -0.06830083 0.104379915
0001b0 43 e2 31 3e a0 2e fa be 05 0c fa be b5 28 78 3e
       0.17371468 -0.48863697 -0.48837295 0.24234279
0001c0 07 c4 a8 3d d9 39 ea bd de 29 95 3d fa e8 da 3e
       0.08240514 -0.11436815 0.07283376 0.42755872
0001d0 a7 da 77 3d 70 b1 50 3e c2 a1 fd 3c e8 b9 d4 be
       0.060511257 0.20380187 0.030960921 -0.41548085
0001e0 45 69 19 be f6 56 26 3e 73 d1 5b be a5 52 1e 3e
       -0.14981563 0.1624411 -0.21466617 0.15461214
0001f0 94 79 9d 3d 3c 21 65 3d 33 a8 bf be 7f 63 84 3d
       0.07689205 0.055939898 -0.37433013 0.0646429
000200 57 03 e9 3e 52 73 b1 be 48 53 ae be 7e e8 1f 3f
       0.4551036 -0.34658295 -0.34047914 0.6246413
000210 28 1e 80 be 6d fe 44 be 07 0c 39 3e d7 a2 1c be
       -0.25023007 -0.1923768 0.18070994 -0.15296493
000220 5d dd 99 be 01 83 9e 3e 6b 83 db be c0 c8 83 be
       -0.300517 0.30959323 -0.428737 -0.25739098
000230 95 d6 c1 3d fa 4d da be 59 41 ed 3e c0 0d b9 3e
       0.094647564 -0.42637616 0.4633892 0.36143303
000240 2f a7 dd be 8b 80 2c be 6f f0 85 3e 85 7e 4c be
       -0.43291613 -0.1684591 0.2616 -0.19970138
000250 36 a2 b0 be 48 f1 a9 bd 46 13 b8 be 32 b6 f6 be
       -0.34498757 -0.08297974 -0.35952204 -0.4818588
000260 aa 7e 14 bf 6a 95 2a bd 44 51 99 be 62 d5 aa 3d
       -0.58005774 -0.0416464 -0.29944813 0.08341481
000270 35 a4 2f 3e 4b 5d 81 3e 8d e7 a8 be fd 3e 1b be
       0.17152484 0.2526649 -0.3298916 -0.15160747
000280 91 41 e9 3e 80 33 a5 be e9 5a d1 3d 02 d7 ea 3d
       0.45557836 -0.32265854 0.10222418 0.11466791
000290 0a 5d 81 3e 7a dd f8 bc a3 72 34 3d 04 ba 7e bd
       0.25266296 -0.030379046 0.04405464 -0.062189117
0002a0 98 ab 3f 3e bc f6 72 3e 61 be b7 be fe 6b 93 be
       0.18717802 0.23726934 -0.35887435 -0.2879333
0002b0 52 d1 90 3e 3e 44 60 3e 65 05 19 3e 56 d0 a3 be
       0.282847 0.21901032 0.14943464 -0.31994885
0002c0 e4 19 02 3e a5 b2 07 bb 9d e9 d6 be 20 15 d6 3d
       0.12705189 -0.0020705846 -0.41975108 0.10453248
0002d0 2a 1f 8e 3d 97 74 c4 be ea 7e 17 bf 81 91 5f 3e
       0.06939538 -0.383702 -0.5917803 0.21832849
0002e0 7b b3 b5 be e0 4e c3 be b1 ba 16 bf 02 64 21 bf
       -0.35488495 -0.38146114 -0.5887862 -0.63043225
0002f0 b4 f6 ad 3d 34 7b aa be 13 89 80 3e 55 e6 d1 be
       0.084943205 -0.33297122 0.2510458 -0.40996042
000300 f4 4a 19 3e ff 89 db 3e 3e 3a 51 be 79 ab d3 be
       0.14969999 0.4287872 -0.20432374 -0.4134176
000310 cc 6d de bd 89 da a0 3e 65 c7 f3 be 5b 61 19 bf
       -0.10860786 0.3141673 -0.47613063 -0.5991418
000320 58 79 85 3c 48 12 44 be 14 c0 5e 3e d4 a3 af 3e
       0.016293213 -0.19147599 0.2175296 0.34304678
000330 21 59 b4 3e fd 64 a1 3e 7c 1b aa 3d e2 1f 07 bd
       0.3522425 0.3152236 0.083060235 -0.03298939
000340 f0 fd ac bc 7c 73 11 bf cf 7b bf 3d f1 0c 70 3e
       -0.02111718 -0.5681684 0.093497865 0.23442437
000350 89 83 98 3e 54 02 a3 be 11 46 27 3e 14 16 f1 bd
       0.29787853 -0.31837714 0.16335322 -0.11771789
000360 3d dd 8c 3e a2 d1 ae bd 35 ad 15 bf 54 68 c8 3e
       0.2751254 -0.08536078 -0.5846742 0.39142096
000370 37 1f 8c bd 92 26 d9 be 93 de 87 3e 5d 50 7c 3e
       -0.06841891 -0.4241224 0.26536998 0.24640031
000380 5a c4 57 be 84 8c 07 3e fa fc 12 3e ef d0 d7 bd
       -0.21070996 0.13237196 0.14354315 -0.10537898
000390 a6 37 22 be 63 3f 2f be f2 34 94 3e bb 6e 4c 3e
       -0.1584154 -0.17114024 0.28946644 0.19964115
0003a0 68 fc d6 bb ff f0 8d bd 1c ec da 3d fb be fa 3d
       -0.006560851 -0.06930732 0.106895655 0.12243458
0003b0 03 31 88 3d cd d0 67 3e d5 25 c4 be 40 ef 08 bf
       0.06649973 0.22638245 -0.38310114 -0.53490067
0003c0 20 28 90 3e 30 9d aa 3e c3 53 81 bd dd 88 3c 3d
       0.28155613 0.3332305 -0.063148044 0.04602896
0003d0 e7 89 f4 3d 56 d9 59 3e 23 2a 86 3b a6 00 a3 3e
       0.11940365 0.21274313 0.0040943786 0.31836432
0003e0 e0 42 94 be 1d 29 11 be 52 0f d3 bd af 00 ae be
       -0.28957272 -0.1417584 -0.103056565 -0.33984897
0003f0 b6 8a 1e 3e 1d 0d 65 bc 83 c4 89 be 7e 40 01 3e
       0.15482602 -0.013980177 -0.2690774 0.12622258

conv1.bias f4 [32]
000000 35 88 46 3d fe f5 b2 be 7d b4 7e 3e d8 6d 06 3e
       0.04846974 -0.34953302 0.24873538 0.1312784
000010 83 92 05 3b cd 84 fc 3d 7a 43 97 be 0f 5b d2 bc
       0.0020381517 0.12330017 -0.29543668 -0.025678186
000020 8e 18 9a bd b4 e5 70 bd 1a ea c4 be 6c 07 a1 bd
       -0.07524215 -0.058812812 -0.38459855 -0.07862744
000030 1c 6b cc 3d f8 81 ab bc 26 2a 0c be c1 6b 2f be
       0.09981367 -0.020935997 -0.13687953 -0.17130949
000040 ea 20 63 3e ae d8 cd bd 13 a5 8d bd 38 92 21 bd
       0.22180524 -0.10051094 -0.06916251 -0.039446086
000050 5c 02 9a 3e 69 9b 04 be 71 cc 09 bd 64 c1 40 bd
       0.30079925 -0.1294991 -0.033642236 -0.04705943
000060 3d fd 84 bd 6d c5 9b be 60 d3 82 be 71 1d 0f bc
       -0.06493614 -0.3042406 -0.2555189 -0.008735047
000070 98 84 e4 be 75 69 ce bd e8 5e 45 bb a0 af 7e be
       -0.4463241 -0.10078708 -0.0030116383 -0.24871683

conv2.weight f4 [64, 32, 3, 3]
000000 c6 4a 73 3d 86 10 a5 3d c2 0a 37 bd 17 eb 4c 3e
       0.05939748 0.08059792 -0.044687994 0.20011555
000010 9a f4 ce 3d a4 3d 04 bd 35 bd a5 bd ec 93 d7 3d
       0.10105248 -0.032285348 -0.08092729 0.10526261
000020 20 d9 0a be 86 a6 1a 3d 5c 0f bf bc 28 a3 2b be
       -0.13559389 0.037756465 -0.023322754 -0.16761458
000030 67 02 f0 3c 6e 0a 00 3d dd af 3a bb cd da b1 3d
       0.02929802 0.031259947 -0.002848617 0.08684311
000040 df 3a 9c 3d 98 4f b1 3d cc 38 35 3c c9 fc dc 3c
       0.07628416 0.086577594 0.011060905 0.026976006
000050 4d 0b 39 bd ef 40 50 bd 08 e9 98 ba bd b4 1f 3c
       -0.045176793 -0.050843176 -0.0011666128 0.009747681
000060 97 2a 8a 3c f0 7d 6b 3c 94 04 ed bd dc 34 77 3d
       0.016866012 0.014373288 -0.11573139 0.060353145
000070 6d 40 10 bd 22 28 92 3d b4 ff 42 3d c5 e3 e5 3c
       -0.03521769 0.07136561 0.04760714 0.02806271
000080 58 61 ca 3d 05 31 a1 bd 82 64 67 bc d6 7e 97 bd
       0.09881848 -0.07870678 -0.014123084 -0.07397239
000090 1a 7c a6 3d db e3 04 3d 81 cf 35 3c 0f d7 6d 3d
       0.08129139 0.032443862 0.011096836 0.058066424
0000a0 21 04 98 3d 12 17 fa 3c 52 b3 5c bd 2b 71 ae bd
       0.074226625 0.030528579 -0.05388195 -0.08517679
0000b0 51 76 8c be db d2 0d bb e2 97 41 bd fc da 86 be
       -0.27434018 -0.0021640572 -0.047263987 -0.26338947
0000c0 f6 e0 95 bc da 67 b7 bd 7d a4 86 bd 95 b7 42 3d
       -0.018295746 -0.08955355 -0.065743424 0.04753836
0000d0 df f6 18 3c 6a 34 98 3d 12 99 94 bd 47 8b 02 bd
       0.009336202 0.07431872 -0.07255758 -0.031871106
0000e0 c7 fa 4f be f0 90 5e 3d ce 9c 89 bc 65 29 af bd
       -0.20310508 0.054337442 -0.016798403 -0.08552817
0000f0 d2 0f a5 3d 1a 67 c6 3d 4e 2b 6e bd e0 ca e9 38
       0.08059658 0.09687634 -0.058146767 0.00011148094
000100 4b 61 b0 bd 41 86 54 be 87 6d 27 bd 5f cb 1e bd
       -0.08612307 -0.20754339 -0.040875938 -0.03876817
000110 eb 07 24 be 4b df e8 bd ef 6a bf 3d e6 8e fe bd
       -0.16018645 -0.11370715 0.09346568 -0.124295995
000120 40 44 22 3d 09 89 83 3d 61 2e f2 bd a6 01 aa 3d
       0.03961587 0.06422622 -0.11825252 0.08301096
000130 a3 a3 78 3d b8 c1 f4 bd 77 77 55 3a 06 0f af 3d
       0.06070293 -0.119510114 0.0008143107 0.08547787
000140 d3 b4 e0 bc 70 02 8c bd 5e e4 27 3b cc d6 84 ba
       -0.027429974 -0.068364024 0.0025618295 -0.0010134815
000150 49 e8 4a bd 65 5d 0d bd 7e eb 0f bd 20 3a f6 3c
       -0.04953793 -0.034512896 -0.035136692 0.030057013
000160 39 46 04 bd 7a 9a 90 3d ba b4 87 3c f6 fa 11 bd
       -0.032293532 0.07060714 0.01656567 -0.035639726
000170 8c bd 05 be 15 53 e7 ba 07 2d ab 3c 3d db 7b 3a
       -0.13060588 -0.0017648662 0.020895494 0.0009607559
000180 ad 5b 28 3d 1a 40 17 bb 04 5b c7 3d 95 fe f6 3b
       0.041103054 -0.002307898 0.09734157 0.0075376728
000190 f5 0e 0e be f8 52 1f be 8f 95 96 3c 98 b5 7a bd
       -0.13872893 -0.15558994 0.018381862 -0.061208338
0001a0 d2 87 89 bd 45 06 27 bd 4a 8c 88 3d a8 7b 07 bc
       -0.06715359 -0.040777463 0.06667383 -0.008269228
0001b0 78 a6 8d bc 01 dc 56 bd 21 9e a1 bd 52 09 c6 bc
       -0.017291293 -0.052455906 -0.07891489 -0.024174366
0001c0 c4 de 4a 3d 98 83 e3 38 af a7 d5 3d e5 37 c9 3d
       0.049528852 0.00010848715 0.10432374 0.09825114
0001d0 15 9e 31 3e 30 07 90 39 a1 49 c2 bd 6e 23 34 bd
       0.1734546 0.00027471175 -0.094867 -0.0439791
0001e0 cd c9 25 bd c1 6d 88 3d 01 df 63 3d 01 06 ba 3d
       -0.040475655 0.06661559 0.055632595 0.090831764
0001f0 d4 18 d3 3d 28 e0 01 3e d1 49 d3 bd 2b c7 40 be
       0.1030747 0.12683165 -0.10316814 -0.18825977
000200 c6 26 b9 be c3 d5 7a be d4 5d 13 be be 69 51 be
       -0.36162394 -0.24495606 -0.14391261 -0.20450494
000210 4c 74 85 be e2 9f 73 bd 42 87 f1 bd 26 57 13 bd
       -0.2606529 -0.059478648 -0.117933765 -0.035971783
000220 5e 64 8e bd d9 4e 89 be 9e 26 21 be 65 3d 81 bd
       -0.06952737 -0.26817968 -0.15737388 -0.06310538
000230 2a b2 52 bd 0e 55 c6 3c 21 10 6e 3d 0f 3c ec bd
       -0.05143944 0.02421048 0.05812085 -0.11534893
000240 d0 cd 2e 3a b9 f3 7c 3d 64 e9 2f 3b ac 60 ba 3c
       0.00066682417 0.06175587 0.0026841993 0.022751175
000250 8b 1d 4e 3d 01 60 a7 bc 08 69 70 bd 45 a3 01 be
       0.050321143 -0.02043152 -0.058693916 -0.12659939
000260 31 95 1d bd 08 77 d4 b7 ea 98 51 bd c2 9a 23 bd
       -0.03847236 -2.5327798e-05 -0.05117122 -0.03994251
000270 3f b1 1b be 32 5a 2e 3c 4a 9b 05 bd 5e bb 82 bd
       -0.15204333 0.010641621 -0.0326188 -0.06383394
000280 f8 a8 a0 bb 9d ce 55 3d 3b 79 91 bd 26 9b 2a bb
       -0.004902955 0.052198995 -0.07103201 -0.0026032417
000290 4d ff 2e be ad 1a 30 3d d7 47 8a bd f4 77 4f bd
       -0.17089577 0.04299419 -0.067519836 -0.050651506
0002a0 8c f6 7e 3d 58 1d 64 3d 0c b2 84 3a 9d 6d 8f bd
       0.062246844 0.055692047 0.0010123863 -0.07003329
0002b0 87 46 9e bd e1 48 a6 be 64 64 e8 3c 0e 02 0a be
       -0.07728296 -0.32477477 0.028368182 -0.13477346
0002c0 d6 4f 71 be cc 69 b0 bd d6 55 17 bd b5 ac 7a bc
       -0.23565611 -0.08613929 -0.036947094 -0.015299966
0002d0 28 ba 81 bb 89 a4 dc 3c 69 f2 7f 3d 05 3f db 3d
       -0.003958959 0.026933925 0.06248704 0.107053794
0002e0 55 b9 9d 3c f4 68 c3 3d c9 91 82 3d 5f ae 72 bd
       0.019253412 0.095415026 0.063754626 -0.059248324
0002f0 59 a3 65 be 6c 97 38 bd 4e 73 14 be 58 10 6c be
       -0.22425593 -0.045066282 -0.1449711 -0.2305311
000300 8c 73 85 bd ee c0 dd bd 19 a5 8c bd c9 39 1a be
       -0.065161794 -0.10827814 -0.068674274 -0.15061106
000310 84 8b 81 3d 65 1e 5a 3e b8 a1 04 3e d3 d0 eb 3c
       0.063254386 0.21300657 0.12952316 0.028786099
000320 ea 12 35 be 72 54 bd 3d 94 22 7d 3b 0f c9 35 3d
       -0.17682996 0.09244622 0.0038625346 0.044381198
000330 7a e4 10 3e 97 06 98 3d 3e 42 1c 3d d6 da d1 bd
       0.14149657 0.07423132 0.03814911 -0.10246818
000340 c9 e0 0e be 65 66 f6 bd 42 44 08 3c 83 a8 31 3d
       -0.13952936 -0.12031249 0.008317055 0.043373596
000350 4f 1e b9 3b 94 b4 b6 bd 10 fe 8b bc 51 5e 33 3e
       0.005649365 -0.08921161 -0.01708892 0.17516448
000360 3f f3 11 be 68 7e 0e 3d 94 f7 9e bd 56 d9 13 be
       -0.14252947 0.03478852 -0.077620655 -0.14438376
000370 59 f5 21 bc 60 3a 99 3d d7 1f 70 3b 5f 60 05 3d
       -0.009885156 0.07481837 0.0036640072 0.03256261
000380 97 f5 8b 3d db 6f 15 bd 7e bd 4d bd 0f 83 f0 bd
       0.06833952 -0.036483627 -0.050229542 -0.117437474
000390 d6 87 15 ba 9b 3f 12 bb 53 0f e5 bd 93 1c cf 3d
       -0.000570414 -0.0022315744 -0.111845635 0.10112872
0003a0 0d ce 2e ba 11 12 d3 3d f8 a7 78 bd b5 88 b4 3c
       -0.0006668277 0.1030618 -0.060707062 0.022037843
0003b0 7d 20 f8 bd be 22 99 bd a3 20 29 3c 4c 8d d7 3c
       -0.12115572 -0.0747733 0.010322723 0.026312493
0003c0 9c 4f 05 3c a0 c2 ba 3d e0 dc 85 3d 46 30 43 3d
       0.008136656 0.09119153 0.06536269 0.04765346
0003d0 3b f2 8f 3d 37 28 c4 bd a9 5e 76 bc 99 12 12 3c
       0.07028624 -0.09577983 -0.015037217 0.008915567
0003e0 75 b1 b9 bd 51 66 b2 3c ef 2f cd 3c fa 62 0a be
       -0.0906705 0.021777304 0.02504727 -0.13514319
0003f0 95 72 af ba 21 87 fa bc 24 2e 35 be ce d6 74 3d
       -0.0013385589 -0.030582013 -0.17693383 0.059775166

conv2.bias f4 [64]
000000 9d 76 d7 bb 09 df bb bd c8 68 19 bd 23 fc 79 3c
       -0.006575419 -0.091734 -0.037453443 0.015257868
000010 00 11 22 bd 5f 7b aa bd 81 04 31 bd 49 ef 9d bc
       -0.039566994 -0.083243124 -0.043217186 -0.01927914
000020 c8 7b 32 bd 20 ae 27 3d 62 23 85 bd 4f b8 23 bc
       -0.04357508 0.040937543 -0.06500889 -0.009992673
000030 cf a9 2a 3d 6a 82 db 3c 18 43 29 bd fc 75 5e bd
       0.04166585 0.026795585 -0.04132375 -0.054311737
000040 1f 74 50 3d 75 8b 27 bc 18 65 0f 3d 73 49 a1 bd
       0.05089199 -0.01022612 0.03500852 -0.078753375
000050 35 e5 2c bd 6e 9c f0 bd 47 73 68 bd 99 b3 23 3c
       -0.042210776 -0.117485866 -0.056750562 0.00999155
000060 c3 c2 00 bd dc 15 1c 3d c3 3e b8 bd c2 d2 90 bd
       -0.03143574 0.038106784 -0.08996346 -0.07071449
000070 14 21 cf 3c 84 8c f1 3b 63 2b d2 bc 3b 08 34 bd
       0.025284328 0.007371487 -0.025655454 -0.04395316
000080 06 50 9a bd 78 af 63 bc 37 ef 6e bc 10 44 a9 bd
       -0.075347945 -0.0138968155 -0.0145834 -0.08264935
000090 0a ce 03 bc c7 90 a3 bd f3 ef 1f bc c6 fe dd bb
       -0.008044729 -0.079865985 -0.009761798 -0.006774756
0000a0 d0 b4 33 bd c2 f4 5a bd b4 ba b3 bc 97 fb dd b9
       -0.043873608 -0.053456075 -0.021939613 -0.00042339854
0000b0 14 5d 3b 3c 33 27 44 bd b6 aa be 3d cd 5c d0 bc
       0.011435766 -0.047888946 0.09309904 -0.025434876
0000c0 d4 ce c0 bc 5f b2 2d bc fe a2 56 3a 85 3a 73 3c
       -0.023536123 -0.010601609 0.000818774 0.014845495
0000d0 d7 aa b9 bc 61 df 2d 3c 3f 74 87 3c ae a0 98 3b
       -0.02266447 0.01061234 0.016534923 0.0046578264
0000e0 1d 25 40 bd 8c a5 af bd 38 78 fb bc 67 dc 7a bb
       -0.046910394 -0.085764974 -0.030696973 -0.0038278343
0000f0 5a c9 75 3c 12 a1 ab bc 75 34 69 bc 13 90 21 3c
       0.015001619 -0.020950828 -0.014233698 0.00986101

conv3.weight f4 [128, 64, 3, 3]
000000 0b 94 1c bd 71 46 84 3b 1b 56 98 ba 76 ca 32 3d
       -0.038227122 0.0040367176 -0.0011622341 0.043650113
000010 15 27 a6 bc 10 c9 fa 3d 6e 54 f0 3b 92 70 33 3a
       -0.020282308 0.12245381 0.0073342836 0.00068450824
000020 e5 85 6d 3d 8b 67 11 bd 19 6f b1 bd 11 42 0d 3c
       0.05798902 -0.035499137 -0.08663768 0.0086217085
000030 45 0b ac bd de c2 02 be db e2 5b bb 43 49 3e bd
       -0.08400587 -0.12769648 -0.0033551964 -0.046456587
000040 d9 c6 2f be c0 6e e5 3b 84 f9 0b bd 1a 26 06 3d
       -0.17165698 0.007001728 -0.034173504 0.03275118
000050 05 d2 8b 3b fa 2c 91 bd 68 c7 56 bd d2 ea 03 bd
       0.0042669796 -0.07088657 -0.052436262 -0.032206364
000060 3b 17 ac bd c6 17 15 be ec 7c 0c bd 1d fb 95 3d
       -0.08402868 -0.1455985 -0.034298822 0.07323287
000070 b6 53 04 3d ed 16 04 3d 95 47 21 3d 3e 37 37 3b
       0.032306395 0.032248426 0.039374907 0.002795651
000080 94 20 51 bc 9d 70 de 3c 1d 4e 54 3d 8e 7a 86 bb
       -0.012764115 0.027153308 0.051832307 -0.004103965
000090 dc b1 06 be 88 7c 2b 3d 7c 5c 9e 3d b8 ec 43 3d
       -0.13153785 0.04186681 0.07732484 0.047833174
0000a0 69 34 09 3d 01 28 54 bd 0f 92 52 bc 68 be 42 3d
       0.033497248 -0.051795963 -0.012852206 0.047544867
0000b0 c8 bc 50 bc 8f c7 76 bd 77 d0 df bc 5a 5a 40 3c
       -0.012740321 -0.060248908 -0.027321083 0.0117402915
0000c0 58 e2 52 bc d0 d9 72 bc be f0 4d bd 32 98 47 3d
       -0.012871347 -0.014822438 -0.050278418 0.04872913
0000d0 25 27 95 bc 4c c4 55 bd f1 58 88 bc d2 c8 04 3d
       -0.018207142 -0.052189156 -0.016643973 0.03241808
0000e0 85 10 b7 3d b0 b3 7b bd b4 37 4d bc 22 a6 89 3c
       0.08938698 -0.06145066 -0.012525488 0.016802851
0000f0 fd 91 c3 bd 19 13 02 bc 78 65 17 bd 18 77 b1 bc
       -0.095493294 -0.007939124 -0.036962003 -0.021663234
000100 33 34 ee 3c bb 0e d5 3c d0 61 a5 3c 13 75 dd 3c
       0.029077625 0.026008 0.020188242 0.027033364
000110 16 78 c7 3b c0 7e aa 3b b8 46 02 3d 3a 11 8b 39
       0.0060873134 0.005203098 0.031805724 0.0002652498
000120 65 5d 52 3d 75 e2 fa bb 22 55 61 3c ad c9 f5 3d
       0.0513586 -0.0076563903 0.013753207 0.12001357
000130 ee 3a 94 bc 4f c1 e1 bd 52 fc 77 3d 80 3d 73 3c
       -0.018094506 -0.11023199 0.060543366 0.014846206
000140 af b9 bf bc 51 e0 8c 3a b2 62 2f 3c e7 f5 5c bc
       -0.02340397 0.0010748004 0.010704683 -0.013486362
000150 75 c6 2c bc e9 a9 9d bd f2 ee 7c bd c9 fa 05 bd
       -0.010545363 -0.076984234 -0.061751314 -0.03270987
000160 1b d9 38 3d b3 e5 b8 3d b4 2e 9e bc 6d 38 1d be
       0.045128923 0.09028187 -0.01930938 -0.15353556
000170 5a 4a 77 3d 3b 8a a1 bd 4f ab 1f bd f0 cd da 3d
       0.06037364 -0.078876935 -0.038981732 0.10683811
000180 84 43 bf bd 00 42 02 bc 45 a3 f6 3d b3 a3 d9 bc
       -0.093390495 -0.007950306 0.1204286 -0.026567316
000190 e0 d7 98 3d db a2 7d bd 01 08 e8 bb 59 ea ba ba
       0.0746305 -0.06192289 -0.0070810323 -0.0014260515
0001a0 64 18 dd bc 23 1d 22 3d e5 b3 a4 3d 9f 18 1c 3d
       -0.02698917 0.03957857 0.08042125 0.038109418
0001b0 30 75 a6 3d 4b a8 f2 bc 76 0d 86 3d ff 77 dd 3c
       0.081278205 -0.029621264 0.06545536 0.027034758
0001c0 d5 d5 07 bc c8 94 63 3d 58 70 b7 3d f6 17 19 3e
       -0.008290728 0.05556181 0.08956975 0.14950547
0001d0 9e 42 30 bd a4 4f b5 bd 1e 91 15 be fe bd 0d be
       -0.04303228 -0.08853081 -0.14606139 -0.13842008
0001e0 7d 5e b3 bd d5 ba 60 3d f8 7e c5 3d 63 df 33 3c
       -0.087582566 0.054865677 0.09643358 0.0109785525
0001f0 20 7f 70 3d 48 d6 7b bd 2e ca 29 bd 33 4b 60 bc
       0.058714986 -0.06148365 -0.04145258 -0.013689804
000200 04 05 a9 3c d0 d9 d8 3a 47 1b c6 bc 52 b4 a5 3b
       0.020632274 0.0016544405 -0.024182929 0.0050568962
000210 e2 0e 0e 3d e3 b4 1d 3d b1 cf 85 bc 9f 71 8c bc
       0.034682162 0.038502585 -0.016334387 -0.017144023
000220 27 f1 06 3e 36 29 fd 3d 8a 1a 74 3c 74 ca 63 3d
       0.1317793 0.12361376 0.0148989055 0.055612996
000230 d9 dc b0 3c 77 43 d8 bd ea 14 d7 bd 57 b9 96 bd
       0.021589683 -0.10559743 -0.10502036 -0.073595695
000240 d4 69 c7 bd 92 0f 97 3c 66 21 4f bd 57 e7 06 39
       -0.09736982 0.018440042 -0.05056896 0.00012865417
000250 0f 10 54 bc 80 1d 69 bb e4 9d cb 3c 3e 9f a2 3d
       -0.012943282 -0.0035570562 0.024855562 0.07940529
000260 82 76 e1 bd 81 3e 0d bb 71 e7 68 3b 93 e8 17 3d
       -0.11008932 -0.0021552148 0.003553834 0.037087034
000270 67 30 5f 3d 16 6b 67 3d 9b d6 41 3c 9e 2b 85 3c
       0.05448952 0.05649861 0.011830951 0.01625615
000280 a2 06 30 bc 36 b5 96 3c bc f5 ce bd 8c c9 83 be
       -0.010743769 0.018396955 -0.10105464 -0.25739706
000290 e3 15 d5 bc 8c aa c9 bd 0a 54 d7 bd af 75 45 3d
       -0.026011413 -0.09846982 -0.10514076 0.048207935
0002a0 b8 96 0c be da 9d 4e bd 21 d5 a7 bc 4a 09 70 bd
       -0.1372937 -0.050443508 -0.02048737 -0.05860261
0002b0 8a 7b 53 bc 01 4d d0 bd e1 8b 39 be 8d ac 48 bd
       -0.012907872 -0.10170937 -0.18119766 -0.048992682
0002c0 f5 ed 9f 3d aa 6a e8 bd 55 ca 0f be 35 86 cd bc
       0.078090586 -0.113484696 -0.14042027 -0.025088409
0002d0 1f 02 7d bd 79 f2 41 3c 86 51 a1 3d 8d 01 d2 3c
       -0.0617696 0.011837595 0.078768775 0.025635505
0002e0 f5 48 a0 3c 26 cd 8c 3c fc f7 a3 3c 4b d9 3c bc
       0.019566039 0.017187666 0.02001571 -0.011526416
0002f0 49 5a a7 3c 15 4e ce bd af ae 75 3c cd e2 ed 3d
       0.020428794 -0.10073487 0.014995261 0.116155244
000300 da e0 4f bd a0 cb 17 bc 6f 5a 4f bd 35 e4 8d 3d
       -0.050751545 -0.009264857 -0.050623354 0.06928293
000310 9f 2a 89 bd ea 3b 8e 3d 5f 37 35 bc 80 36 09 3d
       -0.066975825 0.069450215 -0.011060565 0.03349924
000320 91 34 27 3d 58 24 87 3c b6 51 d5 bd 31 2a dd 3c
       0.040821616 0.016496822 -0.10415976 0.026997657
000330 39 eb 10 3d 7b c4 1e bd 88 3e 1e 3d 03 e4 c3 bc
       0.035380576 -0.038761597 0.038633853 -0.023912435
000340 15 74 b3 bb 74 73 92 3c 7f 8b 0b be c5 05 e1 bb
       -0.0054764845 0.017877318 -0.13627432 -0.006867143
000350 b1 a7 95 3d f7 36 26 be 11 0e 95 bc 6c 13 bc bd
       0.07307375 -0.16231905 -0.018195184 -0.09183392
000360 13 6a 93 3b d6 35 12 3d 2e 71 0f bd 16 a2 67 3d
       0.004498729 0.035695873 -0.035020046 0.05655106
000370 d8 26 fd bb 23 dc ee bc 42 fc cf 3c 0e 72 94 bc
       -0.007725578 -0.029157704 0.02538884 -0.018120792
000380 94 78 7d bd 63 05 e0 3c a4 92 58 bc 9c 39 25 bd
       -0.06188257 0.027346319 -0.013218556 -0.040338144
000390 7e 64 64 bd 9a 0e ae 3d eb 0e 2d 3b 23 07 cb bc
       -0.0557599 0.08498879 0.0026406597 -0.024783676
0003a0 64 bd 5f 3d be d9 7f bb 77 97 b9 3d 9b 7f a6 3d
       0.054623976 -0.0039039697 0.09062093 0.081298076
0003b0 8c 3a 9e bb 92 62 b4 3c 06 c0 ba bc 05 36 43 3c
       -0.0048287567 0.022019658 -0.022796642 0.011914735
0003c0 70 34 85 3d 43 1f c9 3d e2 f6 0b 3d 67 d7 12 3d
       0.06504142 0.09820416 0.034170993 0.035849955
0003d0 4b 05 89 bb 1e 83 ce 3c a4 e1 84 3d 8a 9c cd ba
       -0.004181539 0.025209006 0.0648835 -0.0015686911
0003e0 19 c1 42 bc eb c0 79 bc a2 84 c8 3c 73 92 c6 bd
       -0.011886858 -0.015243749 0.024477307 -0.09695902
0003f0 14 46 00 bc ea 60 03 3c 90 17 8c 3c b4 3a f8 bd
       -0.007829208 0.008018712 0.01710108 -0.12120572

conv3.bias f4 [128]
000000 5e 19 ad bc 18 d1 3a bd 79 82 86 3b 21 bd 62 bd
       -0.02113026 -0.045609564 0.004104909 -0.05535615
000010 46 bb 10 bd 71 dd 29 bd b2 0b 4d bc 1b 50 26 bd
       -0.035334848 -0.04147095 -0.012514995 -0.04060374
000020 6a bc 8c bd e7 2f 69 bd 77 e5 1f bc 18 1f 4e bd
       -0.06871875 -0.05693045 -0.0097592985 -0.050322622
000030 fc 94 b0 3c 8f 3d 60 bc 87 64 c5 bc 7f 61 c3 bb
       0.021555416 -0.013686552 -0.024095787 -0.00596255
000040 95 e3 9b bd 47 2f ff bc 10 8f 08 3d d8 3f c5 bc
       -0.07611767 -0.031150473 0.03333956 -0.024078295
000050 d8 d3 24 3d 98 fb c6 bc da 5d fd bc ed 8e 51 bd
       0.040241092 -0.024289891 -0.030928541 -0.051161695
000060 c9 d6 c5 3c 0b d3 a9 ba 6b 64 d8 bb ca 2a 05 bb
       0.02415027 -0.0012956572 -0.0066037676 -0.0020319694
000070 d8 e5 38 bd d9 57 43 bd 75 fe 88 bc b8 38 3c bc
       -0.04514107 -0.0476912 -0.016722897 -0.011488132
000080 16 09 ac bd f7 9b c4 bc 33 dd 92 bd 29 f6 b2 bd
       -0.084001705 -0.024000151 -0.07171097 -0.087383576
000090 ad 02 2c bd 52 a8 12 bd 10 9b 6f bc 7e 10 bb bc
       -0.04199474 -0.035805054 -0.014624372 -0.022835013
0000a0 93 8f 4f bd e4 b9 c7 3c 41 75 fb bc 93 59 87 bc
       -0.050674032 0.024380632 -0.03069556 -0.016522205
0000b0 88 fa d6 bc 34 33 e3 bb 51 99 09 bd 88 ec 0a bd
       -0.02624251 -0.006933594 -0.03359348 -0.03391698
0000c0 60 17 a6 bd 8d 68 3e 3c 41 8b f4 bc fa cc 2f bd
       -0.08109927 0.011621607 -0.029851558 -0.04292009
0000d0 86 36 0d bc 26 34 95 bd 62 c6 5c bd 9c 6e 99 bd
       -0.008618956 -0.07285337 -0.05390013 -0.074918
0000e0 ae b8 9a 3b 8a 79 23 bd e5 5c c9 bc be 2f ee bc
       0.0047217226 -0.03991083 -0.024580428 -0.0290755
0000f0 3f e5 99 bd 62 b5 30 bd 30 3a 81 bd aa 07 a0 bd
       -0.07514428 -0.04314173 -0.063099265 -0.07813962
000100 aa 91 08 bd 25 57 8a bd 84 35 65 bd 2d 3d b8 bc
       -0.03334204 -0.06754903 -0.05595924 -0.022490108
000110 58 07 24 bd f7 43 37 bd 74 81 48 bd 81 51 bb bc
       -0.040046066 -0.04474255 -0.04895158 -0.022866013
000120 ee 17 ca bb bc 03 af bb 86 07 26 bc cf c5 9e bd
       -0.0061674034 -0.0053410213 -0.01013363 -0.07752573
000130 62 a5 82 bd 80 ab 9b bc 46 15 b4 bd 1f 9e 34 3b
       -0.063792005 -0.019002676 -0.0879312 0.0027560068
000140 60 9a 38 bd 48 6d 92 bc 9d d7 90 bd be 91 d4 bc
       -0.0450691 -0.017874375 -0.07072375 -0.025948402
000150 23 94 37 bd 11 03 85 bd 2f 5e b4 bc 49 da 15 bd
       -0.04481901 -0.064947255 -0.022017566 -0.036585126
000160 97 d3 c6 bc 56 77 40 bd c0 92 b6 bc a1 a9 32 3c
       -0.024270816 -0.046988808 -0.022286773 0.0109047005
000170 51 e3 44 bd 9c 2c b4 bc 0e 7c 57 bc 94 9b 08 3d
       -0.04806835 -0.021993928 -0.013152136 0.033351496
000180 98 cb a8 bc 22 d5 5a bd bb 58 8a bc 49 bc 18 bc
       -0.020604894 -0.053425916 -0.016888013 -0.009322234
000190 ad 5b a3 bc 1a 4b e9 3c 44 55 fa bb 78 2f 32 bd
       -0.019941175 0.028478194 -0.007639559 -0.0435023
0001a0 89 6a cd bb 0a e5 cb bc 4a cf 55 bb 68 ee 9f 3c
       -0.0062688035 -0.024889488 -0.0032624775 0.01952286
0001b0 eb c4 46 3d 47 87 1b 3c c9 7d e7 ba 1a 9e 8d bc
       0.04852764 0.009492702 -0.0017661388 -0.017287303
0001c0 a2 f2 16 bd 21 34 46 bd 2d f7 83 bd cd e6 eb bc
       -0.036852486 -0.048389558 -0.064436294 -0.028796578
0001d0 c2 bf 1a bd 9c 00 7c bc 41 ca f7 bc 44 dd 14 bd
       -0.03778053 -0.015381005 -0.03024781 -0.036343828
0001e0 9b 81 2c bd 55 02 e4 bc 48 1b b8 bc c4 7b 0f bd
       -0.04211579 -0.027833143 -0.022473946 -0.03503014
0001f0 83 a1 85 bb 24 35 2f bd 04 a6 8c bc 3d 4a 2b bd
       -0.0040780916 -0.04277529 -0.017169006 -0.041818846

fc1.weight f4 [10, 128]
000000 c9 ad eb 3d 51 ca 2a be 0d 50 9d bb fa 49 84 3d
       0.11507756 -0.1667874 -0.0048008026 0.064594224
000010 59 3e 51 be 7a 27 4a be 9c 44 b5 3d f5 ce 08 bc
       -0.2043394 -0.19741622 0.08850977 -0.008350124
000020 5e 89 7b 3d db e8 30 3e e1 60 4d bd 6f fb 2c bd
       0.0614103 0.17276327 -0.05014122 -0.042231973
000030 4b 17 4a 3d 2f 37 1b 3d 64 35 1d 3e 95 ec 8d 3d
       0.04933862 0.037894424 0.15352398 0.0692989
000040 0c cb ea bd c4 5b 91 3d 8c c1 c5 bd 9f 54 61 bd
       -0.11464509 0.07097581 -0.09656057 -0.05501234
000050 2e b2 5f be 45 07 0d bd e5 bc cf 3c ff 91 08 bd
       -0.21845314 -0.03443076 0.025358627 -0.033342358
000060 a8 c1 8b bd 80 e2 e5 3c 0c 1e 23 bd c1 c9 4a 3d
       -0.068240464 0.028062105 -0.039823577 0.049508814
000070 59 28 99 3d d9 a8 29 3e 07 64 b6 bd 66 0a cf bd
       0.07478399 0.16568317 -0.089057975 -0.10109405
000080 09 ee a1 bd 12 a6 2e 3d 98 9f 3a 3d 8f f6 b7 bd
       -0.0790673 0.042638846 0.045562357 -0.08982574
000090 60 65 8b 3d eb fc a7 3d fe f7 5e be ab fb 70 be
       0.06806445 0.08202537 -0.21774289 -0.23533504
0000a0 97 a2 1b 3d b2 96 af bd b8 0a d8 bd 84 2f ce bc
       0.037996855 -0.08573665 -0.105489194 -0.025169142
0000b0 73 dc 93 be 76 10 a2 3d 13 33 b2 bd ee c7 f1 bc
       -0.28879127 0.07913296 -0.08701148 -0.02951428
0000c0 74 a2 a7 bc 7d be 10 be ff 60 9a bd 61 2d 98 bd
       -0.020463206 -0.14135166 -0.07538032 -0.0743053
0000d0 4f d0 90 be 19 3d d4 bd 29 18 84 3b 49 3e 0c be
       -0.28283927 -0.10363216 0.0040312004 -0.13695635
0000e0 be bc a6 bd f2 d6 13 be 2f 2e ca bd 73 aa 72 3d
       -0.081414685 -0.14437464 -0.0987209 0.059244584
0000f0 31 8e de bc 58 1e 06 bc 13 0e ca bd 40 39 a4 bd
       -0.027167412 -0.008185945 -0.09865966 -0.08018732
000100 51 57 5f 3d 53 7f 2c 3d 9b 10 81 3c 36 35 0b 3c
       0.05452663 0.042113613 0.015754988 0.008496573
000110 2e 75 ec 3d 3e 12 44 be 98 36 14 bd 87 ec b9 3d
       0.11545788 -0.19147584 -0.036184877 0.09078317
000120 fc 93 03 bd 85 04 d7 3d 0f 69 ca 3d 8e b4 a1 3d
       -0.03212355 0.10498909 0.098833196 0.07895766
000130 1f 25 07 bd 33 0c c9 bd fa ae 02 be 89 a3 32 bc
       -0.032994386 -0.0981678 -0.12762061 -0.010903248
000140 99 a5 70 be 93 be d1 bd e1 77 13 3d af 8f c9 3d
       -0.2350067 -0.10241427 0.036002997 0.098418586
000150 89 94 ed bc a5 65 b3 bb 43 2e cf 3a 50 58 e3 bd
       -0.029001491 -0.0054747635 0.0015806634 -0.11100829
000160 53 6b 68 bd 74 a4 c3 bd 42 78 28 3d 27 4d 9a 3d
       -0.056742977 -0.09552851 0.04113031 0.07534247
000170 38 d8 85 bd c6 26 aa bb fe 1a a1 3d 4f fa af 3d
       -0.06535381 -0.0051926104 0.078664765 0.085926645
000180 e9 49 d8 3d 9b 97 b5 bc da 99 28 3d f3 89 0e bc
       0.10560972 -0.022167018 0.04116235 -0.008699882
000190 f8 17 5d bd 97 c5 ac 3d 57 03 a1 3d 9c d2 3e be
       -0.053977937 0.08436125 0.07861965 -0.18635029
0001a0 02 1e 37 bd e0 d0 3e 3c a0 b4 5c bc 31 c8 00 be
       -0.044706352 0.011646479 -0.013470799 -0.12576367
0001b0 6d 04 b5 3d b6 f9 ae 3d 7c 83 6a 3d 50 c2 a1 3d
       0.08838735 0.08543722 0.0572543 0.0789839
0001c0 50 6f bb 3c 69 72 0d 3e 7f 3d 02 be 54 74 a3 bd
       0.022880226 0.13813175 -0.12718771 -0.07981172
0001d0 b2 0c ad bd 85 0b 5b bd be fd 92 be 11 17 30 3d
       -0.08449687 -0.053477783 -0.28709215 0.042990748
0001e0 ab 4b 96 3b 0c 85 1b 3d c7 0b 61 be 2f c9 d1 bc
       0.004586657 0.03796868 -0.21977149 -0.025608627
0001f0 c4 3b d6 3b 92 a2 ae 3d 89 51 60 be 2a 37 0c be
       0.0065378863 0.085271016 -0.21906103 -0.13692918
000200 fe 3c 38 be 77 36 c7 bd 94 7a 7e 3d 10 ad 20 bd
       -0.17992017 -0.09727185 0.06212862 -0.039227545
000210 26 b5 fd 3d 83 d4 d4 bd 87 ab d0 bd 6e eb 6c 3a
       0.12388067 -0.10392096 -0.10188966 0.00090377673
000220 ce 7b 04 3e cc 70 97 be ae b2 2a be 8e d0 a7 be
       0.12937853 -0.29578245 -0.16669723 -0.32776302
000230 8a eb 51 3d 33 bf d7 ba 08 02 96 be bf 92 74 be
       0.05125002 -0.001646018 -0.29298425 -0.23884104
000240 3d 3f d1 3d fe fd d0 bd 89 13 42 be 79 43 11 3d
       0.1021714 -0.10204695 -0.18952765 0.035464738
000250 5b d8 d0 bd 98 8b 3c bd 18 cb 06 3e a5 1d 3c bd
       -0.101975165 -0.046031564 0.13163412 -0.04592671
000260 69 24 ed 3c 2f 80 01 3e 08 23 a3 3d 99 65 c2 3d
       0.028948026 0.12646554 0.07965666 0.094920345
000270 bf 35 8b 3d 0c 8c 8f be 62 e2 7d 3d 98 43 73 be
       0.06797361 -0.28036535 0.061983474 -0.23756254
000280 75 ce 74 3c 53 aa 2b be eb a9 8f bd 47 66 9a 3b
       0.014941801 -0.16764192 -0.07014831 0.0047118994
000290 d1 57 3e be e1 40 08 bd 4e 60 48 3e 70 b9 62 be
       -0.18588187 -0.033265 0.19567987 -0.22141051
0002a0 1b 87 9f bc 43 a7 bc bc ad 79 57 be 33 44 98 bd
       -0.019473603 -0.023028975 -0.2104251 -0.07434883
0002b0 7d 0d a8 3d cb e2 95 3d 3d 52 1d 3b c4 b1 92 3d
       0.08205698 0.07318648 0.0024005317 0.07162812
0002c0 a1 d4 dd 3c 78 b0 76 be 13 a0 07 3e f7 d5 41 3c
       0.027078928 -0.24090755 0.13244657 0.011830798
0002d0 aa 0e 03 3e a4 ee d2 bd d9 fa 8f bd d2 41 19 be
       0.12798563 -0.10299423 -0.07030267 -0.14966515
0002e0 a9 05 a4 3d 14 b2 cd 3d b5 04 3a be 6e fa 8d bd
       0.08008892 0.10043731 -0.18165858 -0.06932531
0002f0 ba 40 34 be 06 af a6 bd 84 3c f8 bd aa 7b 56 3d
       -0.17602816 -0.08138852 -0.121209174 0.05236403
000300 60 80 0f be 2f 0e 03 3e d2 1b 6c be 53 87 0e 3d
       -0.14013815 0.1279838 -0.23057488 0.034797024
000310 d5 34 24 be dc 07 33 bd e2 28 17 bd 35 73 2e be
       -0.16035779 -0.043708667 -0.036904223 -0.17036135
000320 64 91 f5 3d f5 6e 14 be bf 02 2d be e2 5b f2 bd
       0.11990622 -0.14495452 -0.16895579 -0.118339315
000330 89 6b 66 3d eb b2 0d 3b eb 71 dc bd b7 c8 48 be
       0.056254897 0.0021621536 -0.10763916 -0.19607817
000340 37 3a a3 3c 23 b3 45 be 68 75 d9 3c 43 5e 8e 3d
       0.01992522 -0.19306616 0.026545241 0.06951573
000350 1c f6 7c bd 43 39 8a 3d e9 00 b2 bc f4 8b a9 bd
       -0.061758146 0.06749203 -0.02172895 -0.08278647
000360 5a e9 aa bc 29 ea 75 be 0d af 18 bd 07 0a b1 bd
       -0.020863224 -0.24015106 -0.037276316 -0.08644491
000370 9f ee 7b 3c ec c9 22 3e 6b de a0 3d 7d 81 b2 3d
       0.015376716 0.1589734 0.07854923 0.08716104
000380 79 05 9f bd a1 4b 1a bd ae 19 f7 bb 4d 6c 70 bd
       -0.07764716 -0.03766978 -0.007540903 -0.058697034
000390 04 79 80 bd 37 4c 72 3d 11 c3 98 be 85 7b 2f 3d
       -0.06273082 0.059154715 -0.29836324 0.042842407
0003a0 bb f5 01 3e 4e 15 a4 3d 0a 7b a5 bd 32 70 a5 3d
       0.12691395 0.08011876 -0.080801085 0.0807804
0003b0 fe 3b d8 3d 94 50 f2 3d b8 a8 48 be e3 9e 10 be
       0.105583176 0.11831775 -0.19595611 -0.1412311
0003c0 cb 87 71 3d 7b 25 da bd f8 82 25 be 8d 0f 12 bd
       0.058967393 -0.1065168 -0.16163242 -0.03565936
0003d0 67 60 a2 bd 02 27 db 3c 35 ae 04 be a5 b6 a9 bd
       -0.079285435 0.026751999 -0.1295708 -0.0828679
0003e0 76 0a d5 3c 8a 67 ea 3c 50 99 8b 3c 11 d2 69 3d
       0.026005965 0.028613824 0.017040879 0.0570851
0003f0 9a be bf bd 7d f2 15 be 74 21 26 bd 6a eb 6d be
       -0.09362526 -0.14643283 -0.040559247 -0.23234335

fc1.bias f4 [10]
000000 23 64 8b bc 5c f2 7b 3e c2 65 87 be fd 02 2a 3d
       -0.017015522 0.24604172 -0.26444823 0.041506756
000010 c8 4a 27 3e 78 9b a0 bd 83 65 11 be 8f 43 f0 3d
       0.1633712 -0.07842153 -0.1419888 0.11731636
000020 58 b1 e1 3b 8b a6 66 be
       0.006887596 -0.22524469
