models/model.pth (torch, 378536 bytes, 8 tensors)

conv1.weight f4 [32, 1, 3, 3]
-0.4535728 -0.037235342 0.019986305 -0.33615917 -0.38502064 -0.36952192 0.1305747 -0.106610835
-0.47636265 0.014609885 0.029192891 -0.41149774 0.061643474 -0.23519285 -0.36885634 0.3143797
0.47548229 0.22299358 0.061525613 -0.29627824 0.11012608 0.17087579 0.07022173 0.120730065
0.09720936 -0.009885487 -0.0024935135 -0.08887781 -0.20519634 -0.3781218 0.21053526 -0.25436944
-0.11532184 0.21890992 -0.37559927 -0.48307198 -0.03742954 -0.035046477 0.21261322 0.26857758
-0.28669706 0.06524021 -0.22815618 -0.3987943 0.2505792 -0.020754524 0.049814876 0.030904561
-0.01757465 0.1119473 0.10232379 0.0032904083 -0.13664944 0.1535582 -0.0054684156 0.09405705
-0.09402723 0.03347727 -0.23938839 0.16530377 -0.26602882 0.2080625 -0.20690507 0.32565624
-0.3084079 -0.021662582 0.4921645 -0.3772235 -0.4781106 0.39736968 0.11510409 -0.14404571
-0.2444226 -0.24361783 0.28311986 0.24281572 -0.6763722 0.3928363 0.063782446 -0.30322084
-0.28777373 -0.18437545 -0.3910471 -0.47654793 -0.17008695 0.2941965 -0.1585753 0.35640204
-0.0039240085 0.41979125 -0.00033966868 0.022516962 -0.15949118 -0.6255661 -0.15328503 0.08564901
-0.16543305 0.34869972 0.44098523 -0.024042213 0.13085526 -0.029148852 0.07534542 -0.07862773
-0.17429414 -0.32699105 0.27691036 0.08462491 -0.0359817 -0.048252895 0.34284422 0.05748703
0.37913388 -0.16800295 -0.40497202 -0.1757303 -0.43594432 0.0684631 0.32737032 0.4194577
0.2798334 0.20724146 -0.1356236 -0.34999758 -0.5228693 -0.51084846 -0.14022218 -0.65714556
0.007836122 -0.06048524 -0.2585165 0.4036079 0.086889 0.391953 0.35532996 0.46372458
-0.22240113 -0.6384244 0.24694361 -0.31715524 -0.18426861 -0.36643326 -0.59172785 -0.28218022
0.36551902 -0.04633108 -0.31344563 -0.0030518798 -0.5689218 -0.24716689 -0.5420432 -0.3330549
0.17648622 0.060186315 0.079668045 -0.1532858 -0.06310752 -0.39607033 0.15592848 0.1406697
0.010548322 0.058554452 -0.27361006 -0.17106205 0.037839584 -0.16863589 -0.43662637 -0.37909958
0.3928553 0.18992794 -0.52004725 0.16756912 0.21227266 0.1876303 0.15275647 0.22624446
-0.34755182 0.1605586 -0.211787 -0.49334255 -0.08024579 -0.115912154 -0.53137416 -0.3107342
-0.04370943 -0.31767887 -0.39014953 -0.41865748 -0.20982395 0.25202933 -0.10039131 -0.39147043
-0.112782665 0.1782739 -0.35005718 0.3512416 0.120732896 -0.26857337 -0.16956742 0.41381902
0.23314416 -0.14827351 -0.21018416 -0.34663424 -0.30371672 -0.26286843 -0.010835939 0.013497421
-0.2393289 -0.36037582 -0.17161229 -0.37693855 -0.061356254 -0.21504705 -0.043395165 0.5079684
-0.14836013 0.31212455 0.19938323 -0.20160326 -0.1141077 -0.53314173 0.01825843 0.25979602
-0.034774117 0.2155471 -0.050643608 -0.3824504 0.15476342 0.24094841 -0.2578297 -0.43409827
-0.08203408 0.29948136 -0.07033312 -0.47174743 0.3330478 0.1314149 -0.17685251 -0.16288032
0.47215688 -0.23650329 -0.31890842 0.23296408 0.2519705 -0.30277866 0.05671064 0.12678233
-0.27339476 0.18479373 0.09938949 0.08243921 -0.09213478 0.09617158 0.457336 -0.19808899
00000000: b23a e8be 1684 18bd 52ba a33c 0e1d acbe
00000010: 6d21 c5be fa31 bdbe 60b5 053e c856 dabd
00000020: cee5 f3be 4d5e 6f3c ee25 ef3c d5af d2be
00000030: de7d 7c3d 65d6 70be bdda bcbe 60f6 a03e
00000040: 6a72 f33e 6e58 643e 4802 7c3d c8b1 97be
00000050: c889 e13d 10fa 2e3e 69d0 8f3d 5341 f73d
00000060: b315 c73d bdf6 21bc 376a 23bb 9205 b6bd
00000070: fd1e 52be 2e99 c1be 8e96 573e b63c 82be
00000080: db2d ecbd ec29 603e 8c4e c0be 3655 f7be
00000090: b84f 19bd e58c 0fbd 48b7 593e 0083 893e
000000a0: f5c9 92be a99c 853d c6a1 69be c42e ccbe
000000b0: eb4b 803e 6405 aabc af0a 4c3d 902b fd3c
000000c0: b6f8 8fbc a044 e53d 238f d13d e4a3 573b
000000d0: d5ed 0bbe 5c3e 1d3e 6530 b3bb fca0 c03d
000000e0: 5991 c0bd 761f 093d 3b22 75be 6445 293e
000000f0: ee34 88be 560e 553e ecde 53be 6abc a63e
00000100: a4e7 9dbe ba75 b1bc fcfc fb3e 7023 c1be
00000110: eaca f4be 0a74 cb3e b1bb eb3d b880 13be
00000120: eb49 7abe f476 79be 16f5 903e afa4 783e
00000130: ba26 2dbf d721 c93e 5fa0 823d c33f 9bbe
00000140: 1457 93be ebcc 3cbe 5337 c8be 17fe f3be
00000150: 462b 2ebe eca0 963e 9061 22be 547a b63e
00000160: f894 80bb e1ee d63e 8f15 b2b9 7e75 b83c
00000170: a851 23be 1a25 20bf c0f6 1cbe c068 af3d
00000180: 4867 29be c588 b23e d1c8 e13e 2df4 c4bc
00000190: ecfe 053e 93c9 eebc b34e 9a3d 9307 a1bd
000001a0: 2a7a 32be 5f6b a7be 32c7 8d3e d34f ad3d
000001b0: 8c61 13bd d4a4 45bd 4789 af3e 8577 6b3d
000001c0: d61d c23e f708 2cbe 7e58 cfbe a5f2 33be
000001d0: 1834 dfbe 6236 8c3d 159d a73e 29c3 d63e
000001e0: 5346 8f3e 1b37 543e eae0 0abe e232 b3be
000001f0: c3da 05bf f7c6 02bf 6796 0fbe b13a 28bf
00000200: 1463 003c 5fbf 77bd 465c 84be b2a5 ce3e
00000210: dcf2 b13d 10ae c83e cfed b53e 4f6d ed3e
00000220: 1fbd 63be c86f 23bf c9de 7c3e 2c62 a2be
00000230: e9b0 3cbe 249d bbbe 7a7b 17bf ed79 90be
00000240: 4f25 bb3e a9c5 3dbd f27b a0be 0c02 48bb
00000250: dca4 11bf 5119 7dbe 58c3 0abf 2c86 aabe
00000260: ceb8 343e ed85 763d 0029 a33d f4f6 1cbe
00000270: 843e 81bd bbc9 cabe b7ab 1f3e b80b 103e
00000280: dfd2 2c3c cbd6 6f3d 9e16 8cbe e42a 2fbe
00000290: aefd 1a3d e3ae 2cbe 7e8d dfbe 5719 c2be
000002a0: 5424 c93e 787c 423e d121 05bf 3d97 2b3e
000002b0: 015e 593e 2822 403e 316c 1c3e a1ac 673e
000002c0: 50f2 b1be 7969 243e b1de 58be 6597 fcbe
000002d0: e857 a4bd 5a63 edbd 2308 08bf 8e18 9fbe
000002e0: a908 33bd cea6 a2be aec1 c7be 465a d6be
000002f0: 17dc 56be fd09 813e f699 cdbd d06e c8be
00000300: 99fa e6bd 6f8d 363e b23a b3be f0d5 b33e
00000310: cf42 f73d 7382 89be 15a3 2dbe 16e0 d33e
00000320: 58bd 6e3e 03d5 17be 843a 57be 0b7a b1be
00000330: c280 9bbe b196 86be 3989 31bc 4924 5d3c
00000340: a312 75be 2e83 b8be 22bb 2fbe 17fe c0be
00000350: b250 7bbd 4b35 5cbe 21bf 31bd 380a 023f
00000360: b8eb 17be cace 9f3e 1e2b 4c3e 1671 4ebe
00000370: 4cb1 e9bd fa7b 08bf b492 953c fc03 853e
00000380: 4e6f 0ebd 61b8 5c3e ac6f 4fbd 8ad0 c3be
00000390: 4d7a 1e3e 2ebb 763e 4102 84be 2142 debe
000003a0: 7c01 a8bd 9f55 993e d00a 90bd e188 f1be
000003b0: 3e85 aa3e a191 063e d318 35be 19ca 26be
000003c0: 8cbe f13e eb2d 72be f747 a3be 238e 6e3e
000003d0: 4702 813e ce05 9bbe 6b49 683d 3ad3 013e
000003e0: 66fa 8bbe 913a 3d3e b88c cb3d e3d5 a83d
000003f0: 29b1 bcbd 9bf5 c43d f227 ea3e d7d7 4abe

conv1.bias f4 [32]
0.07055001 0.040936895 -0.5157675 0.25622186 -0.09108022 -0.15376893 -0.13198714 -0.029204039
-0.1806786 -0.13667239 -0.09875443 -0.22251233 -0.05180069 -0.1329446 -0.07262069 0.04090604
0.04747959 -0.14358528 0.16350994 -0.39811116 0.27823463 -0.14317203 0.07261883 -0.10456145
-0.1201287 -0.094962604 -0.15282601 -0.48561305 -0.3288832 -0.29498735 -0.11982206 -0.025668364
00000000: 867c 903d 72ad 273d 5709 04bf 832f 833e
00000010: 4488 babd 9a75 1dbe a327 07be 4f3d efbc
00000020: d003 39be d9f3 0bbe c33f cabd 46da 63be
00000030: f62c 54bd a122 08be 28ba 94bd 188d 273d
00000040: f579 423d 0508 13be 266f 273e 3ad5 cbbe
00000050: c574 8e3e b09b 12be 2eb9 943d 5024 d6bd
00000060: 0906 f6bd c17b c2bd 6c7e 1cbe 46a2 f8be
00000070: 6163 a8be 9508 97be 4565 f5bd 7646 d2bc

conv2.weight f4 [64, 32, 3, 3]
-0.015343638 -0.06033698 -0.51868224 -0.047934413 -0.04247934 -0.21946584 -0.1293163 -0.26121396
-0.18879667 -0.04820584 -0.15768707 -0.099563636 0.118207596 0.08337102 -0.106534496 -0.068395905
0.013874429 -0.11255769 -0.08725244 -0.04597639 0.16405398 0.019180816 0.017156564 0.0695184
0.07366695 0.15071341 0.13909909 -0.038007356 -0.1550396 -0.6136588 -0.08975246 -0.061875064
-0.26378638 -0.09407189 -0.23165286 -0.1269674 0.01148448 0.19987735 0.14907946 -0.10394907
-0.031874225 -0.018035028 -0.23319365 0.0035738924 -0.12500055 -0.08410994 0.10422144 0.21370688
-0.12813601 -0.10104156 0.010750002 0.016905956 0.047491487 -0.046375506 0.08858538 0.09713872
0.20213361 -0.12091438 -0.07759033 0.09357689 -0.05775151 0.0117681995 -0.137771 -0.12401197
-0.1283067 -0.18242483 -0.1014857 0.030123718 -0.27395615 -0.26753008 -0.12901172 -0.056425672
0.04198411 0.263383 0.23300527 -0.29453075 -0.05693413 0.097441934 -0.1812607 -0.04690865
-0.3521785 -0.25648192 -0.24814603 -0.07280574 0.13259713 0.13927826 -0.12276652 0.1161516
0.17163512 -0.029931866 -0.18153402 -0.17163818 0.16158344 0.11047252 0.08132199 0.052946664
0.13551283 0.10375054 -0.039657123 -0.07983721 0.14096081 0.15082102 -0.015916169 0.057960264
0.06787311 0.18234023 -0.1149735 -0.17258169 0.080499165 0.14325427 -0.034895275 0.08542562
-0.13757476 0.022205954 0.004126008 0.019634387 0.27037847 0.07969485 0.21015866 0.082927614
0.09404833 -0.040169537 0.030732784 0.059923265 0.054352302 0.16730165 -0.29538727 -0.10857686
-0.023365775 0.0898668 0.13825402 0.03491132 0.03562797 0.112139724 0.06033472 -0.09850288
-0.21280381 -0.67714745 -0.024760058 -0.028943386 -0.34711906 -0.09180659 -0.24879706 0.08340361
-0.121120065 -0.11097855 -0.39112815 0.022362055 0.08467481 -0.33716822 0.036369972 -0.16545016
0.064416476 0.0023577714 0.0016356185 0.20193042 0.026661487 0.09067691 -0.00432918 -0.021069266
0.1405901 -0.082839265 0.019781807 -0.117215164 -0.4656986 -0.103875384 0.016765375 -0.22014317
-0.15735334 -0.28142583 -0.11672894 -0.08275261 -0.051209923 -0.083753474 -0.08085571 -0.27494103
-0.031015262 -0.029882267 -0.016396802 0.07709295 -0.10545727 -0.152957 -0.50236124 -0.11911435
-0.002965961 -0.34794256 0.01232852 -0.26933673 -0.10322823 -0.17004679 -0.21606143 -0.13899365
-0.10591614 -0.056288425 -0.27641678 -0.11749253 -0.062274043 -0.0874633 -0.031616554 0.06305268
-0.112247735 -0.053387858 0.019678151 0.005775957 -0.15388387 -0.048399873 -0.06253974 -0.101934046
-0.12908897 -0.18401825 0.08043885 0.053892028 -0.27441323 0.057802983 0.13585897 -0.06382334
0.08309476 0.1868955 -0.0044857217 -0.006711021 0.023315804 0.05443498 -0.105107285 -0.20600422
-0.012197246 -0.2766973 0.052013226 -0.0009286288 -0.01814132 0.11341026 -0.09762672 -0.016578842
0.033094414 -0.014092436 0.025603095 0.07329341 -0.109326154 -0.17719477 0.09887478 -0.015504289
-0.041416474 -0.027918583 0.004804212 -0.11160258 -0.028837519 -0.0027640157 -0.091137335 -0.15745208
-0.011212018 -0.0037962603 -0.05809036 0.03706583 0.169534 0.2977832 0.2881466 -0.1612629
00000000: e263 7bbc e923 77bd 5cc8 04bf e056 44bd
00000010: d1fe 2dbd a7bb 60be 7e6b 04be d6bd 85be
00000020: ea53 41be 7d73 45bd b878 21be 05e8 cbbd
00000030: d316 f23d 6dbe aa3d c22e dabd 2713 8cbd
00000040: 9351 633c a584 e6bd 68b1 b2bd bd51 3cbd
00000050: c4fd 273e 1621 9d3c ec8b 8c3c aa5f 8e3d
00000060: b3de 963d 9e54 1a3e fe6f 0e3e 9aad 1bbd
00000070: b3c2 1ebe be18 1dbf 23d0 b7bd b570 7dbd
00000080: 020f 87be c3a8 c0bd 6836 6dbe be03 02be
00000090: 6729 3c3c a6ac 4c3e 49a8 183e 40e3 d4bd
000000a0: 8c8e 02bd 32be 93bc 51ca 6ebe f737 6a3b
000000b0: 2500 00be d541 acbd 0d72 d53d fad5 5a3e
000000c0: 1636 03be e1ee cebd c720 303c 5c7e 8a3c
000000d0: 6f86 423d 3ef4 3dbd 406c b53d aaf0 c63d
000000e0: 1dfc 4e3e f5a1 f7bd aee7 9ebd 3ea5 bf3d
000000f0: d98c 6cbd 68cf 403c d713 0dbe fdf9 fdbd
00000100: d562 03be 93cd 3abe bcd7 cfbd 04c6 f63c
00000110: fb43 8cbe b4f9 88be a61b 04be 9b1e 67bd
00000120: 88f7 2b3d 23da 863e ef98 6e3e bccc 96be
00000130: c333 69bd a38f c73d 689c 39be 4923 40bd
00000140: be50 b4be 9951 83be fe19 7ebe 2d1b 95bd
00000150: 8bc7 073e f69e 0e3e 036d fbbd e4e0 ed3d
00000160: 1ec1 2f3e ac33 f5bc 0ee4 39be ebc1 2fbe
00000170: 2176 253e 6b3f e23d 258c a63d 9ade 583d
00000180: e0c3 0a3e 2a7b d43d 826f 22bd b181 a3bd
00000190: 0858 103e d370 1a3e a062 82bc be67 6d3d
000001a0: 0f01 8b3d 66b7 3a3e 3a77 ebbd 41b9 30be
000001b0: bfdc a43d 3fb1 123e 59ee 0ebd a1f3 ae3d
000001c0: 66e0 0cbe 43e9 b53c 7733 873b 4bd8 a03c
000001d0: 0c6f 8a3e 0e37 a33d d533 573e f4d5 a93d
000001e0: 699c c03d d088 24bd 52c3 fb3c 1972 753d
000001f0: 85a0 5e3d 2051 2b3e 003d 97be 8b5d debd
00000200: 9569 bfbc 160c b83d 7692 0d3e 2cff 0e3d
00000210: a2ee 113d 83a9 e53d 8a21 773d e1bb c9bd
00000220: 3ee9 59be 8959 2dbf 9bd5 cabc ae1a edbc
00000230: 97b9 b1be 1805 bcbd a8c4 7ebe 83cf aa3d
00000240: cc0d f8bd b948 e3bd f341 c8be a130 b73c
00000250: fd69 ad3d 50a1 acbe aef8 143d c46b 29be
00000260: c9ec 833d d784 1a3b 4062 d63a d9c6 4e3e
00000270: 3169 da3c d1b4 b93d cbdb 8dbb 7499 acbc
00000280: daf6 0f3e a2a7 a9bd 750d a23c 810e f0bd
00000290: 0c70 eebe 9ebc d4bd 8a57 893c 366d 61be
000002a0: 3c21 21be 0c17 90be 950f efbd 337a a9bd
000002b0: 7fc1 51bd f186 abbd ae97 a5bd 12c5 8cbe
000002c0: b813 febc a8cb f4bc 9652 86bc e9e2 9d3d
000002d0: fbf9 d7bd c3a0 1cbe bf9a 00bf 39f2 f3bd
000002e0: 9160 42bb 8725 b2be 90fd 493c 81e6 89be
000002f0: 5269 d3bd bf20 2ebe 353f 5dbe 5a54 0ebe
00000300: 90ea d8bd b18e 66bd 8086 8dbe ec9f f0bd
00000310: 1113 7fbd f51f b3bd 5c80 01bd c321 813d
00000320: 24e2 e5bd 3aad 5abd 1334 a13c 3d44 bd3b
00000330: bc93 1dbe f23e 46bd d614 80bd ccc2 d0bd
00000340: e62f 04be 486f 3cbe 20bd a43d e3bd 5c3d
00000350: e47f 8cbe d2c2 6c3d 9d1e 0b3e d0b5 82bd
00000360: 962d aa3d 8961 3f3e f6fc 92bb 20e8 dbbb
00000370: c900 bf3c 37f7 5e3d 7d42 d7bd c5f2 52be
00000380: f5d6 47bc 45ab 8dbe d20b 553d 396f 73ba
00000390: 1b9d 94bc a343 e83d 85f0 c7bd 5ad0 87bc
000003a0: 028e 073d f6e3 66bc 95bd d13c db1a 963d
000003b0: 64e6 dfbd 8c72 35be dc7e ca3d b405 7ebc
000003c0: 52a4 29bd 83b5 e4bc a76c 9d3b e58f e4bd
000003d0: a93c ecbc 7d24 35bb 36a6 babd 1e3b 21be
000003e0: 9db2 37bc aeca 78bb 28f0 6dbd 57d2 173d
000003f0: 529a 2d3e 0a77 983e f387 933e 1a22 25be

conv2.bias f4 [64]
-0.013459927 -0.06208282 -0.046344828 0.008881457 0.0023851488 -0.054202136 -0.126886 -0.037229862
0.028759839 0.00021743693 -0.052455027 -0.0764904 0.020098044 0.09634634 -0.07404567 -0.026480312
-0.05849981 -0.00549398 -0.079122685 -0.04714477 -0.1082952 0.0018893691 -0.046187174 -0.09470756
-0.09623164 0.031589925 -0.04100961 -0.06668623 0.04641403 -0.049563833 -0.041933883 -0.044339344
-0.08664209 -0.1001502 -0.06957929 -0.024148129 -0.07299157 -0.02932273 0.061520148 -0.0026700043
-0.07585653 -0.0070218486 0.0048527084 -0.07840022 -0.021894298 0.12684213 -0.060258165 0.010185068
-0.06756108 -0.03422741 -0.004832883 0.051645443 -0.08180557 -0.0904406 -0.056009788 -0.002735619
-0.006976225 -0.039952267 -0.1132123 -0.022293232 -0.07530496 -0.09480017 -0.012437061 -0.031104391
00000000: 0787 5cbc 8e4a 7ebd 13d4 3dbd 8883 113c
00000010: 2850 1c3b 0f03 5ebd 67ee 01be 577e 18bd
00000020: c199 eb3c c8ff 6339 15db 56bd 00a7 9cbd
00000030: a7a4 a43c 3b51 c53d 42a5 97bd 3ded d8bc
00000040: 7f9d 6fbd d806 b4bb 130b a2bd e01a 41bd
00000050: e0c9 ddbd b5a4 f73a c32e 3dbd 0af6 c1bd
00000060: 1815 c5bd 7064 013d b1f9 27bd ca92 88bd
00000070: a31c 3e3d 7203 4bbd ddc2 2bbd 2c9d 35bd
00000080: 6871 b1bd 8c1b cdbd 967f 8ebd 4cd2 c5bc
00000090: 9b7c 95bd 3936 f0bc 8dfc 7b3d 3dfb 2ebb
000000a0: ab5a 9bbd 8917 e6bb 7803 9f3b 4b90 a0bd
000000b0: ac5b b3bc e7e2 013e 44d1 76bd 45df 263c
000000c0: 775d 8abd 0a32 0cbd 295d 9ebb 2c8a 533d
000000d0: ae89 a7bd ec38 b9bd 856a 65bd 1248 33bb
000000e0: d198 e4bb fda4 23bd dadb e7bd 4ca0 b6bc
000000f0: 7d39 9abd 9726 c2bd d1c4 4bbc a3ce febc

conv3.weight f4 [128, 64, 3, 3]
0.12244005 0.018987993 -0.092559546 0.095743105 -0.093084745 -0.025648698 -0.18349284 -0.08227915
0.03635545 0.030885706 0.020446049 -0.0389335 -0.12893547 -0.042587657 -0.015990263 -0.034066923
-0.029851168 -0.027060386 0.08569954 0.016942801 0.10184204 0.040600017 0.037806373 0.13403553
0.030012405 -0.0023635537 0.0055164564 -0.03537355 -0.010351783 0.098567985 -0.08751436 -0.063681446
0.07768009 0.05388301 0.022424988 0.12663522 -0.026435707 -0.084592886 -0.061031334 -0.008305872
0.088769935 -0.15371612 0.094643325 0.028726373 -0.3097257 0.15398988 0.12269194 0.10827544
0.05505275 0.06784925 0.029401211 0.00038560265 0.02458832 0.06715414 0.060469788 -0.0042316397
0.00062433886 -0.09101168 -0.07806864 -0.16480388 -0.32467258 -0.14204249 0.073585205 -0.019909708
0.031134395 -0.062123664 -0.007349944 -0.11007915 -0.081108175 -0.024115974 0.011554654 -0.15071863
-0.015265068 -0.009367482 0.028204488 0.045193177 -0.040949352 0.060057994 0.21193933 0.060169414
0.0009298632 -0.08244898 -0.055443835 -0.11574209 -0.00011288892 0.019524863 -0.108951196 0.18153454
0.06942466 -0.09259887 -0.080413446 0.06782003 -0.02505709 0.0454226 -0.0016925035 0.012514618
0.056667883 0.0046802363 0.05549678 -0.14783522 -0.18881433 -0.26077092 -0.15892626 -0.129015
-0.084963195 0.03172484 -0.1704225 0.031885386 0.020685792 -0.026180707 0.0038584454 -0.0042347456
-0.03627654 -0.023178725 -0.00964897 -0.0061875316 -0.032836817 0.010849026 -0.012238429 -0.049293894
-0.027350966 -0.12165635 -0.052142903 0.0054970076 -0.1104448 -0.058489174 -0.07539611 0.08614703
-0.032409202 -0.1449468 -0.04032399 -0.059605855 -0.32700133 -0.16807598 0.2159119 -0.07921716
-0.10034086 -0.022776006 -0.1811218 -0.11616971 0.015789537 -0.012465726 0.08452461 -0.23144707
0.07312531 0.10409507 -0.067385785 0.15364806 0.00792291 0.063087665 -0.018275466 -0.1307499
-0.0040443675 -0.21905397 0.045306675 0.20406365 -0.02493811 0.10391974 0.08907683 -0.039683726
0.031413678 -0.09466994 0.030538538 -0.02448763 -0.100970626 0.022843258 -0.1258172 -0.14616634
0.05456461 -0.022933662 -0.045464803 -0.00908148 -0.06412737 0.10131503 -0.05611055 0.04263171
0.09784651 0.012199921 -0.100148536 -0.07425968 -0.16705328 -0.07512379 -0.051222313 -0.221168
0.06567019 -0.13838626 -0.13344252 0.19406073 0.055850677 0.06410366 -0.16553411 0.045467503
0.034526158 -0.043449253 -0.12357987 0.124065064 0.008800876 -0.255001 0.020197835 -0.0010561517
-0.010533999 -0.013465321 0.019133499 -0.039164156 0.00688837 -0.020927053 -0.03883127 0.12445032
0.01972041 -0.032878917 0.05409207 -0.07234768 -0.11480595 0.020693026 -0.032567598 -0.15312514
-0.04453768 0.01263838 -0.26082283 -0.070931636 -0.16343868 -0.1009597 -0.013410684 0.031495363
0.056829836 0.2007403 0.18786363 0.124944344 0.011986265 -0.29108623 -0.05518959 0.07750001
-0.15255718 -0.030123081 -0.010130976 0.012262399 -0.017549833 -0.01005188 -0.13840093 0.15061587
-0.0034035768 0.00588259 0.16996294 0.045643646 -0.080265045 -0.063898526 0.023169834 0.008346427
-0.05740905 0.0034854556 -0.109303094 0.20007986 0.10071943 0.09683997 0.12242737 0.05839858
00000000: d9c1 fa3d b58c 9b3c dc8f bdbd f614 c43d
00000010: 37a3 bebd 381d d2bc 8ce5 3bbe f981 a8bd
00000020: 74e9 143d 0504 fd3c 797e a73c bc78 1fbd
00000030: a907 04be 6570 2ebd 03fe 82bc c289 0bbd
00000040: 708a f4bc bead ddbc 3e83 af3d a1cb 8a3c
00000050: 8f92 d03d 344c 263d dbda 1a3d 9c40 093e
00000060: 93dc f53c dae5 1abb 64c3 b43b dbe3 10bd
00000070: 869a 29bc 03de c93d bb3a b3bd 6b6b 82bd
00000080: bd16 9f3d 6eb4 5c3d 9cb4 b73c aaac 013e
00000090: b28f d8bc 093f adbd fefb 79bd 5a15 08bc
000000a0: 03cd b53d c267 1dbe 5cd4 c13d 9253 eb3c
000000b0: 5e94 9ebe 86af 1d3e e945 fb3d 84bf dd3d
000000c0: fe7e 613d 8cf4 8a3d cfda f03c b62a ca39
000000d0: 726d c93c 1c88 893d 2baf 773d 91a9 8abb
000000e0: acaa 233a 5564 babd 73e2 9fbd 59c2 28be
000000f0: 7c3b a6be 9673 11be d7b3 963d af19 a3bc
00000100: 8f0d ff3c 6275 7ebd cdd7 f0bb 2d71 e1bd
00000110: 0b1c a6bd dd8e c5bc bb4f 3d3c fc55 1abe
00000120: 561a 7abc 117a 19bc 190d e73c 7b1c 393d
00000130: 82ba 27bd 5fff 753d a006 593e 3474 763d
00000140: 10c2 733a 03db a8bd 1319 63bd 300a edbd
00000150: c7be ecb8 9bf2 9f3c ce21 dfbd 31e4 393e
00000160: 842e 8e3d 7aa4 bdbd ceaf a4bd 3ae5 8a3d
00000170: 8744 cdbc 0c0d 3a3d fed6 ddba 1d0a 4d3c
00000180: 951c 683d ab5c 993b 9750 633d 1e62 17be
00000190: 8b58 41be c483 85be 91bd 22be 821c 04be
000001a0: 2f01 aebd e8f1 013d 3c83 2ebe 409a 023d
000001b0: 4075 a93c ec78 d6bc f9dd 7c3b 9fc3 8abb
000001c0: b696 14bd 4fe1 bdbc b716 1ebc c7c0 cabb
000001d0: e67f 06bd 1dc0 313c b183 48bc 65e8 49bd
000001e0: 220f e0bc f726 f9bd cc93 55bd 3e20 b43b
000001f0: e230 e2bd 5892 6fbd 4769 9abd db6d b03d
00000200: 83bf 04bd ef6c 14be c52a 25bd 4525 74bd
00000210: b86c a7be 1c1c 2cbe 0218 5d3e 9b3c a2bd
00000220: 827f cdbd bf94 babc fe77 39be 63ea edbd
00000230: 0f59 813c 0b3d 4cbc 3d1b ad3d 7600 6dbe
00000240: b9c2 953d cc2f d53d 8f01 8abd eb55 1d3e
00000250: 18cf 013c 1b34 813d 6eb6 95bc 4de3 05be
00000260: 9d86 84bb af4f 60be 7e93 393d 10f6 503e
00000270: 024b ccbc dfd3 d43d ea6d b63d 678b 22bd
00000280: a1ab 003d 50e2 c1bd f52b fa3c 489a c8bc
00000290: b0c9 cebd c921 bb3c 39d6 00be a1ac 15be
000002a0: 247f 5f3d 60df bbbc 4d39 3abd 7dca 14bc
000002b0: 3655 83bd 417e cf3d 2dd4 65bd 979e 2e3d
000002c0: c063 c83d 2de2 473c ad1a cdbd 7615 98bd
000002d0: 0410 2bbe 80da 99bd 7dce 51bd dd79 62be
000002e0: 187e 863d 21b5 0dbe 28a5 08be dbb7 463e
000002f0: aec3 643d c848 833d c681 29be 223c 3a3d
00000300: 4d6b 0d3d d8f7 31bd 7117 fdbd d315 fe3d
00000310: 8d31 103c 7e8f 82be ee75 a53c 926e 8aba
00000320: cb96 2cbc a69d 5cbc dbbd 9c3c 986a 20bd
00000330: d6b7 e13b 366f abbc 8a0d 1fbd cfdf fe3d
00000340: b38c a13c 0bac 06bd a58f 5d3d 052b 94bd
00000350: 621f ebbd 6c84 a93c 9a65 05bd d6cc 1cbe
00000360: 246d 36bd 3511 4f3c 928a 85be 9b44 91bd
00000370: 785c 27be f6c3 cebd 7cb8 5bbc 4801 013d
00000380: 67c6 683d dd8e 4d3e 535f 403e d2e2 ff3d
00000390: 0a62 443c 4109 95be 7b0e 62bd 53b8 9e3d
000003a0: f337 1cbe aec4 f6bc 65fc 25bc 3be8 483c
000003b0: abc4 8fbc a4b0 24bc f9b8 0dbe 0c3b 1a3e
000003c0: 8b0e 5fbb bec2 c03b c40a 2e3e d5f4 3a3d
000003d0: 0062 a4bd 3bdd 82bd aace bd3c 74bf 083c
000003e0: c125 6bbd 3e6c 643b 4dda dfbd bce1 4c3e
000003f0: fd45 ce3d 0954 c63d 33bb fa3d 5933 6f3d

conv3.bias f4 [128]
-0.07011955 0.00059147435 -0.06434944 -0.05080407 -0.06346053 -0.022461582 -0.012634747 0.004538354
-0.05024535 -0.024059815 -0.053239513 0.027665988 -0.042904582 -0.04367188 -0.021956423 0.021312948
0.033713818 -0.012936862 -0.03188364 -0.05380687 -0.07328584 0.0132334605 -0.03249023 -0.05853381
-0.029866563 -0.12493999 -0.025870802 -0.1262209 -0.00014684969 -0.09746031 -0.030052908 -0.054466102
-0.015986584 -0.0104897125 -0.06095701 -0.05626696 0.0011277786 -0.058553144 0.034216627 -0.049119692
-0.008355554 -0.05068261 -0.08864452 -0.05361778 -0.04246259 -0.031121185 -0.05463548 -0.0084677115
-0.009626212 -0.0042077946 -0.09478179 -0.052645393 -0.05732493 -0.057046853 -0.028312199 -0.16155493
0.014916121 0.024616374 -0.04542043 -0.026907403 -0.02547747 -0.012524161 -0.018729042 0.017224675
-0.040038582 -0.059410922 -0.040208016 -0.049652252 -0.05809417 -0.055922978 -0.025301011 -0.0058312337
-0.054615438 -0.0755965 -0.076084636 -0.017261475 -0.12690744 -0.01623158 -0.05336168 -0.06699284
-0.040328998 0.004523129 0.019451154 -0.070195474 0.008121352 -0.047217835 -0.010919266 -0.009175619
0.0020090481 -0.015336015 -0.05920332 -0.07316597 -0.08638112 -0.019737637 -0.0032471844 -0.04982788
-0.04157254 -0.024617594 -0.015765475 -0.080801874 -0.008275978 -0.018909873 -0.022616126 -0.0036163586
-0.040995285 -0.027314799 -0.08780238 -0.056828074 -0.056518883 0.0047423556 -0.039753616 -0.043357145
-0.034520254 -0.048060924 -0.059115797 -0.046082605 -0.011213013 -0.03437095 -0.02664552 -0.096855745
-0.061683923 -0.049598165 -0.099822186 -0.02815193 -0.037257608 -0.066487856 -0.024674768 -0.045005992
00000000: d79a 8fbd 2c0d 1b3a a4c9 83bd ee17 50bd
00000010: 98f7 81bd 5a01 b8bc f801 4fbc 79b6 943b
00000020: 11ce 4dbd 1719 c5bc ad11 5abd c8a3 e23c
00000030: b7bc 2fbd 49e1 32bd f5dd b3bc 7e98 ae3c
00000040: 8017 0a3d 22f5 53bc 6b98 02bd 9864 5cbd
00000050: e316 96bd 28d1 583c 7a14 05bd 26c1 6fbd
00000060: b9aa f4bc 8ae0 ffbd 01ef d3bc 0d40 01be
00000070: aafb 19b9 4599 c7bd 8431 f6bc d917 5fbd
00000080: 4cf6 82bc 0bdd 2bbc 0fae 79bd 2f78 66bd
00000090: f8d1 933a 6cd5 6fbd bc26 0c3d bb31 49bd
000000a0: bce5 08bc 9298 4fbd 428b b5bd 519e 5bbd
000000b0: 41ed 2dbd dbf1 febc 74c9 5fbd 28bc 0abc
000000c0: 42b7 1dbc 8ae1 89bb f51c c2bd b2a2 57bd
000000d0: 8ccd 6abd f6a9 69bd fcee e7bc a86e 25be
000000e0: bf62 743c 47a8 c93c c60a 3abd ea6c dcbc
000000f0: 21b6 d0bc 2332 4dbc a66d 99bc c31a 8d3c
00000100: 7fff 23bd de58 73bd 29b1 24bd 2960 4bbd
00000110: 27f4 6dbd 7e0f 65bd 1144 cfbc ef13 bfbb
00000120: 70b4 5fbd 56d2 9abd 43d2 9bbd f067 8dbc
00000130: 06f4 01be 17f8 84bc c791 5abd 8b33 89bd
00000140: 0530 25bd c236 943b 0758 9f3c a5c2 8fbd
00000150: 6b0f 053c 7d67 41bd b9e6 32bc 5655 16bc
00000160: 3caa 033b e943 7bbc 2e7f 72bd 0ad8 95bd
00000170: 96e8 b0bd d3b0 a1bc b7ce 54bb 5218 4cbd
00000180: f847 2abd d6aa c9bc 9926 81bc 747b a5bd
00000190: f897 07bc e1e8 9abc 7445 b9bc 6e00 6dbb
000001a0: acea 27bd 49c3 dfbc bcd1 b3bd 8ec4 68bd
000001b0: 5880 67bd c365 9b3b b0d4 22bd 4397 31bd
000001c0: 1c65 0dbd 88db 44bd 6823 72bd 1dc1 3cbd
000001d0: c9b6 37bc 8ec8 0cbd b547 dabc 4e5c c6bd
000001e0: 48a8 7cbd 7227 4bbd 936f ccbd e09e e6bc
000001f0: 6f9b 18bd c92a 88bd bd22 cabc 3458 38bd

fc1.weight f4 [10, 128]
0.15824676 -0.06233733 -0.015830629 -0.31883046 0.17384559 -0.03618643 -0.15327704 -0.030269412
-0.22862232 0.017255364 -0.054099936 0.076038055 -0.1620124 0.1283543 0.059862994 0.07613546
-0.2170257 0.031314775 -0.06725212 -0.1016298 0.1065119 -0.2641876 -0.07362874 -0.09497813
-0.11616746 -0.038505044 0.04114609 -0.15911202 -0.12938045 0.098862395 0.09505996 0.1476801
0.05747794 0.13027473 -0.07575338 -0.07983589 0.0054073622 -0.0745919 0.077017635 0.14332561
0.104413345 -0.24784154 0.09885962 -0.0045404085 0.11561516 0.16311997 -0.096385255 -0.14274989
-0.049925778 0.060941964 0.054335643 -0.08782587 -0.012195429 -0.08885861 -0.25711596 -0.09354101
0.003130836 0.012954496 0.07893273 0.13627297 0.054074667 -0.033978414 -0.16894466 0.014023646
-0.08395879 0.0017076399 0.09793013 -0.062902756 0.099524975 -0.14086257 -0.02457855 -0.19478095
-0.15018916 -0.14091925 -0.062270973 0.03535401 -0.24476555 0.066853516 -0.36227322 -0.23964526
-0.08644424 0.05256283 -0.16389975 0.13886856 -0.04268832 -0.166109 0.053091984 -0.0008019735
0.04009322 -0.05388455 0.1029138 -0.116250075 -0.22646146 0.035817634 -0.07422973 -0.1903843
0.054727346 -0.02583234 -0.021503456 0.057409644 0.11744998 -0.013220623 -0.07401858 -0.22587584
0.051501513 -0.10421216 -0.10697863 -0.23411535 -0.014267226 0.06574306 0.08772507 -0.30004415
0.0848303 0.08203129 -0.24514115 0.033322364 -0.12771466 -0.07962658 0.11564815 -0.046031628
0.007052653 0.1680719 -0.008963797 0.039655037 0.029445542 0.013483703 -0.06824473 0.05810682
-0.30605963 -0.12798674 -0.08455442 -0.15439624 -0.24934661 -0.00220994 0.092473626 -0.06517752
-0.032126315 -0.035166938 -0.06990861 -0.24994914 0.08495433 -0.32269785 -0.15924995 0.07153555
-0.20405422 -0.012646678 -0.46131837 0.15366265 0.22357933 -0.24993767 -0.21043025 -0.076678686
-0.025455343 -0.055982627 0.09541192 -0.036944777 -0.07830479 0.114477165 0.16245648 -0.42155695
-0.06994535 0.104944035 0.080771446 -0.051339317 0.0123761445 0.051958557 -0.32826653 -0.31712276
-0.30069584 0.1677854 -0.20269981 -0.018986622 -0.39993754 -0.066875435 -0.04114857 -0.35354266
0.009906006 -0.15515949 0.010038084 0.10085113 -0.13728529 0.08921179 0.0876646 -0.048082236
0.08028834 -0.028928077 -0.040406052 -0.093257084 -0.48357537 0.11196719 -0.31265932 -0.1287625
-0.19203648 -0.2838337 -0.069856636 0.008251364 -0.23341514 -0.10698846 -0.009209488 -0.29857245
-0.097435355 -0.07299898 0.14913504 0.08431481 -0.0037242153 0.16644788 0.13792099 -0.13045362
-0.0035982828 0.053623766 -0.12145534 -0.15871121 -0.038051635 0.043249063 0.15195155 0.07230996
-0.124155805 -0.2193336 -0.107246384 -0.04036683 -0.18025522 -0.34812778 -0.37522045 -0.08484371
0.13235943 -0.39669228 -0.1195539 -0.053430956 -0.08023306 0.054607734 0.077517144 -0.2509138
0.016281938 0.14035626 0.09222468 0.13099182 0.031445052 0.0322856 -0.15711974 -0.054477647
0.099591255 0.22843876 0.0153155215 -0.040657766 -0.32586408 0.04768038 -0.052268084 0.16970547
0.23791632 -0.069668554 0.14626127 0.0047570094 -0.33661154 -0.00083025184 -0.008098117 -0.15934551
00000000: 700b 223e 6e55 7fbd 3caf 81bc bf3d a3be
00000010: 9404 323e 3938 14bd a8f4 1cbe 8ff7 f7bc
00000020: f81b 6abe 1f5b 8d3c e597 5dbd d7b9 9b3d
00000030: 94e6 25be 4f6f 033e e632 753d e8ec 9b3d
00000040: fc3b 5ebe ec43 003d 7bbb 89bd 4923 d0bd
00000050: e922 da3d 9943 87be aaca 96bd e583 c2bd
00000060: 35e9 edbd 77b7 1dbd cd88 283d 43ee 22be
00000070: 4f7c 04be 5e78 ca3d ccae c23d 7439 173e
00000080: fd6d 6b3d bd66 053e 9724 9bbd 0081 a3bd
00000090: 3e30 b13b a3c3 98bd 6cbb 9d3d f3c3 123e
000000a0: aad6 d53d 2cca 7dbe ea76 ca3d b5c7 94bb
000000b0: a4c7 ec3d ec08 273e a265 c5bd 072d 12be
000000c0: f97e 4cbd 489e 793d 0d8f 5e3d 0dde b3bd
000000d0: 56cf 47bc 81fb b5bd b4a4 83be 6e92 bfbd
000000e0: b62e 4d3b 183f 543c 7ca7 a13d 248b 0b3e
000000f0: 667d 5d3d f32c 0bbd d4ff 2cbe 6fc3 653c
00000100: 96f2 abbd e3d2 df3a 988f c83d 29d3 80bd
00000110: c0d3 cb3d 473e 10be f558 c9bc a874 47be
00000120: 30cb 19be 234d 10be d90f 7fbd 5ecf 103d
00000130: d2a3 7abe 7fea 883d e07b b9be 9165 75be
00000140: ad09 b1bd 1f4c 573d 56d5 27be 8f33 0e3e
00000150: f3d9 2ebd 7a18 2abe fb76 593d 883b 52ba
00000160: ca38 243d 0cb6 5cbd 78c4 d23d 8514 eebd
00000170: 83e5 67be 83b5 123d c205 98bd 1af4 42be
00000180: c829 603d 589e d3bc 0428 b0bc 6026 6b3d
00000190: 9d89 f03d 509b 58bc 0e97 97bd ff4b 67be
000001a0: 40f3 523d 2f6d d5bd 9d17 dbbd efbb 6fbe
000001b0: 15c1 69bc 4ca4 863d 34a9 b33d 639f 99be
000001c0: 82bb ad3d 0500 a83d 4806 7bbe 087d 083d
000001d0: a2c7 02be 4313 a3bd f0d8 ec3d a98b 3cbd
000001e0: f119 e73b 0a1b 2c3e e4dc 12bc 526d 223d
000001f0: c737 f13c c0ea 5c3c e5c3 8bbd 6b01 6e3d
00000200: d9b3 9cbe f50e 03be de2a adbd 0c1a 1ebe
00000210: b854 7fbe a4d4 10bb d062 bd3d cb7b 85bd
00000220: e296 03bd 350b 10bd 3f2c 8fbd abf2 7fbe
00000230: 89fc ad3d a738 a5be 6b12 23be 3b81 923d
00000240: 97f3 50be 0334 4fbc ec31 ecbe be59 1d3e
00000250: fbf1 643e a9ef 7fbe 077b 57be b709 9dbd
00000260: b987 d0bc 0a4e 65bd 5367 c33d 6853 17bd
00000270: 435e a0bd 0173 ea3d fe5a 263e 50d6 d7be
00000280: 823f 8fbd e6ec d63d 806b a53d 2d49 52bd
00000290: 50c5 4a3c 7fd2 543d 8d12 a8be ea5d a2be
000002a0: cef4 99be f0cf 2b3e 8a90 4fbe d589 9bbc
000002b0: 9dc4 ccbe fdf5 88bd 678b 28bd 8b03 b5be
000002c0: cd4c 223c 21e2 1ebe c776 243c 0a8b ce3d
000002d0: 8494 0cbe acb4 b63d 7f89 b33d e1f1 44bd
000002e0: 376e a43d 93fa ecbc d180 25bd 92fd bebd
000002f0: 3197 f7be 0e4f e53d e214 a0be 51da 03be
00000300: 36a5 44be a752 91be ff10 8fbd bb30 073c
00000310: 6104 6fbe c41c dbbd 64e3 16bc 7dde 98be
00000320: 308c c7bd 7d80 95bd dbb6 183e 3ead ac3d
00000330: f711 74bb 5071 2a3e 293b 0d3e a295 05be
00000340: 2bd1 6bbb 98a4 5b3d 94bd f8bd 3185 22be
00000350: 08dc 1bbd ee25 313d 3099 1b3e 3f17 943d
00000360: 6645 febd fd98 60be fea3 dbbd b057 25bd
00000370: d394 38be ce3d b2be e51c c0be 8ac2 adbd
00000380: 3b89 073e 401b cbbe add8 f4bd 6bda 5abd
00000390: 3b51 a4bd 5cac 5f3d 4fc1 9e3d c677 80be
000003a0: b361 853c 8db9 0f3e 4be0 bc3d b822 063e
000003b0: 87cc 003d e83d 043d ffe3 20be f423 5fbd
000003c0: 80f6 cb3d daeb 693e f4ed 7a3c c288 26bd
000003d0: a8d7 a6be 814c 433d 0f17 56bd 45c7 2d3e
000003e0: 56a0 733e 63ae 8ebd 84c5 153e b0e0 9b3b
000003f0: 5958 acbe 42a5 59ba f7ad 04bc 782b 23be

fc1.bias f4 [10]
0.20550568 0.37918356 -0.30925214 0.06334631 0.042355694 -0.10714061 0.050868835 0.015227203
-0.07067474 -0.24591589
00000000: 1570 523e 5924 c23e 4c56 9ebe b6bb 813d
00000010: 2a7d 2d3d 896c dbbd d75b 503d 857b 793c
00000020: ebbd 90bd 60d1 7bbe
